Found cached dataset json (/home/wangzp/.cache/huggingface/datasets/OGB___json/OGB--ogbg-molhiv-84342e5c2b1dba71/0.0.0/8bb11242116d547c741b2e8a1f18598ffdd40a1d4f2a2872c7a28b697434bc96)
GraphormerForGraphClassification(
  (encoder): GraphormerModel(
    (graph_encoder): GraphormerGraphEncoder(
      (dropout_module): Dropout(p=0.0, inplace=False)
      (graph_node_feature): GraphormerGraphNodeFeature(
        (atom_encoder): Embedding(289, 32, padding_idx=0)
        (in_degree_encoder): Embedding(16, 32, padding_idx=0)
        (out_degree_encoder): Embedding(16, 32, padding_idx=0)
        (graph_token): Embedding(1, 32)
      )
      (graph_attn_bias): GraphormerGraphAttnBias(
        (edge_encoder): Embedding(97, 4, padding_idx=0)
        (edge_dis_encoder): Embedding(256, 1)
        (spatial_pos_encoder): Embedding(32, 4, padding_idx=0)
        (graph_token_virtual_distance): Embedding(1, 4)
      )
      (emb_layer_norm): LayerNorm((32,), eps=1e-05, elementwise_affine=True)
      (layers): ModuleList(
        (0-11): 12 x GraphormerGraphEncoderLayer(
          (dropout_module): Dropout(p=0.0, inplace=False)
          (activation_dropout_module): Dropout(p=0.0, inplace=False)
          (activation_fn): GELUActivation()
          (self_attn): GraphormerMultiheadAttention(
            (dropout_module): Dropout(p=0.0, inplace=False)
            (k_proj): Linear(in_features=32, out_features=32, bias=True)
            (v_proj): Linear(in_features=32, out_features=32, bias=True)
            (q_proj): Linear(in_features=32, out_features=32, bias=True)
            (out_proj): Linear(in_features=32, out_features=32, bias=True)
          )
          (self_attn_layer_norm): LayerNorm((32,), eps=1e-05, elementwise_affine=True)
          (fc1): Linear(in_features=32, out_features=32, bias=True)
          (fc2): Linear(in_features=32, out_features=32, bias=True)
          (final_layer_norm): LayerNorm((32,), eps=1e-05, elementwise_affine=True)
        )
      )
    )
    (lm_head_transform_weight): Linear(in_features=32, out_features=32, bias=True)
    (activation_fn): GELUActivation()
    (layer_norm): LayerNorm((32,), eps=1e-05, elementwise_affine=True)
  )
  (classifier): GraphormerDecoderHead(
    (classifier): Linear(in_features=32, out_features=2, bias=False)
  )
) 89897
  0%|          | 0/3 [00:00<?, ?it/s]100%|██████████| 3/3 [00:00<00:00, 502.57it/s]
Loading cached shuffled indices for dataset at /home/wangzp/.cache/huggingface/datasets/OGB___json/OGB--ogbg-molhiv-84342e5c2b1dba71/0.0.0/8bb11242116d547c741b2e8a1f18598ffdd40a1d4f2a2872c7a28b697434bc96/cache-1688f3a3aa9acbbd.arrow
Loading cached shuffled indices for dataset at /home/wangzp/.cache/huggingface/datasets/OGB___json/OGB--ogbg-molhiv-84342e5c2b1dba71/0.0.0/8bb11242116d547c741b2e8a1f18598ffdd40a1d4f2a2872c7a28b697434bc96/cache-b117291977bf1456.arrow
…
